…
lu'),\n    MaxPooling2D(pool_size = (2, 2)),\n    \n    Flatten(),\n    \n    # fully connected layers:\n    Dense(units = 512, activation = 'relu'),\n    Dense(units = 5, activation = 'softmax')\n    \n])\n\nmodel.compile(optimizer = Adam(learning_rate=0.001), loss = 'sparse_categorical_crossentropy', metrics ='accuracy')\nmodel.summary()\n\n\nModel: \"sequential\"\n_________________________________________________________________\n Layer (type)                Output Shape              Param #   \n=================================================================\n conv2d (Conv2D)             (None, 222, 222, 32)      896       \n                                                                 \n max_pooling2d (MaxPooling2D  (None, 111, 111, 32)     0         \n )                                                               \n                                                                 \n conv2d_1 (Conv2D)           (None, 109, 109, 64)      18496     \n                                                                 \n max_pooling2d_1 (MaxPooling  (None, 54, 54, 64)       0         \n 2D)                                                             \n                                                                 \n conv2d_2 (Conv2D)           (None, 52, 52, 128)       73856     \n                                                                 \n max_pooling2d_2 (MaxPooling  (None, 26, 26, 128)      0         \n 2D)                                                             \n                                                                 \n conv2d_3 (Conv2D)           (None, 24, 24, 256)       295168    \n                                                                 \n max_pooling2d_3 (MaxPooling  (None, 12, 12, 256)      0         \n 2D)                                                             \n                                                                 \n flatten (Flatten)           (None, 36864)             0         \n                                                                 \n dense (Dense)               (None, 512)               18874880  \n                                                                 \n dense_1 (Dense)             (None, 5)                 2565      \n                                                                 \n=================================================================\nTotal params: 19,265,861\nTrainable params: 19,265,861\nNon-trainable params: 0\n_________________________________________________________________\n\n\n\n\nFit the model\nThe next code is a crucial step where we train the “model” using the training data “x_t
…
    \n    keras.layers.Flatten(),\n    \n    # fully connected layers:\n    keras.layers.Dense(units = 128, activation = 'relu'),\n    keras.layers.Dense(units =1, activation = 'sigmoid')\n    \n])\n\nmodel.compile(optimizer = keras.optimizers.Adam(learning_rate=0.0001), loss = 'binary_crossentropy', metrics ='accuracy')\n\nmodel.summary()\n\n\nModel: \"sequential\"\n_________________________________________________________________\n Layer (type)                Output Shape              Param #   \n=================================================================\n conv2d (Conv2D)             (None, 126, 126, 256)     7168      \n                                                                 \n batch_normalization (BatchN  (None, 126, 126, 256)    1024      \n ormalization)                                                   \n                                                                 \n max_pooling2d (MaxPooling2D  (None, 63, 63, 256)      0         \n )                                                               \n                                                                 \n conv2d_1 (Conv2D)           (None, 61, 61, 128)       295040    \n                                                                 \n batch_normalization_1 (Batc  (None, 61, 61, 128)      512       \n hNormalization)                                                 \n                                                                 \n max_pooling2d_1 (MaxPooling  (None, 30, 30, 128)      0         \n 2D)                                                             \n                                                                 \n conv2d_2 (Conv2D)           (None, 28, 28, 64)        73792     \n                                                                 \n batch_normalization_2 (Batc  (None, 28, 28, 64)       256       \n hNormalization)                                                 \n                                                                 \n max_pooling2d_2 (MaxPooling  (None, 14, 14, 64)       0         \n 2D)                                                             \n                                                                 \n flatten (Flatten)           (None, 12544)             0         \n                                                                 \n dense (Dense)               (None, 128)               1605760   \n                                                                 \n dense_1 (Dense)             (None, 1)                 129       \n                                                                 \n=================================================================\nTotal params: 1,983,681\nTrainable params: 1,982,785\nNon-trainable params: 896\n_________________________________________________________________\n\n\n\n\nCode\nlogs = model.fit(train_dataset, epochs=10, validation_data=validation_dataset,validation_steps=
…
())\nmodel.add(Dropout(0.2))\nmodel.add(Dense(units=128, activation='selu'))\nmodel.add(BatchNormalization())\nmodel.add(Dropout(0.2))\nmodel.add(Dense(3, activation=\"softmax\"))\nmodel.summary()\n\nmodel.compile(optimizer=Adam(learning_rate=1e-4),\n              loss='sparse_categorical_crossentropy',\n              metrics=['accuracy'])\n\n\nModel: \"sequential\"\n_________________________________________________________________\n Layer (type)                Output Shape              Param #   \n=================================================================\n embedding (Embedding)       (None, 1000, 256)         1280000   \n                                                                 \n dropout (Dropout)           (None, 1000, 256)         0         \n                                                                 \n conv1d (Conv1D)             (None, 998, 64)           49216     \n                                                                 \n max_pooling1d (MaxPooling1D  (None, 499, 64)          0         \n )                                                               \n                                                                 \n bidirectional (Bidirectiona  (None, 128)              66048     \n l)                                                              \n                                                                 \n batch_normalization (BatchN  (None, 128)              512       \n ormalization)                                                   \n                                                                 \n dropout_1 (Dropout)         (None, 128)               0         \n                                                                 \n dense (Dense)               (None, 128)               16512     \n                                                                 \n batch_normalization_1 (Batc  (None, 128)              512       \n hNormalization)                                                 \n                                                                 \n dropout_2 (Dropout)         (None, 128)               0         \n                                                                 \n dense_1 (Dense)             (None, 3)                 387       \n                                                                 \n=================================================================\nTotal params: 1,413,187\nTrainable params: 1,412,675\nNon-trainable params: 512\n_________________________________________________________________\n\n\n\n\nCode\ny_train_enc = y_train_enc.astype(float)\nhistory = model.fit(x_train_seq, y_train_enc, validati
…
